…
500/833 [=================>............] - ETA: 0s - loss: 0.0161 - mean_squared_error: 0.0055833/833 [==============================] - 0s 163us/sample - loss: 0.0154 - mean_squared_error: 0.0047 - val_loss: 1.1279 - val_mean_squared_error: … Model: "Script2Score"
_________________________________________________________________
Layer (type)                 Output Shape              Param #   
=================================================================
most_common_words (InputLaye [(None, 250)]             0         
_________________________________________________________________
embedding (Embedding)        (None, 250, 100)          22104800  
_________________________________________________________________
flatten (Flatten)            (None, 25000)             0         
_________________________________________________________________
batch_normalization (BatchNo (None, 25000)             100000    
_________________________________________________________________
dense (Dense)                (None, 1024)              25601024  
_________________________________________________________________
dense_1 (Dense)              (None, 256)               262400    
_________________________________________________________________
batch_normalization_1 (Batch (None, 256)               1024      
_________________________________________________________________
dense_2 (Dense)              (None, 256)               65792     
_________________________________________________________________
dense_3 (Dense)              (None, 64)                16448     
_________________________________________________________________
dense_4 (Dense)              (None, 1)                 65        
=================================================================
Total params: 48,151,553
Trainable params: 25,996,241
Non-trainable params: 22,155,312
_________________________________________________________________
 32/104 [========>.....................] - ETA: 0s - loss: 0.7659 - mean_squared_error: 0.7552104/104 [==============================] - 0s 268us/sample - loss: 1.1279 - mean_squared_error: 1.1172
…
